…
block: 196, cnn-drop 0.0000, mlp-drop 0.0000
L2G: 2 heads, inp: 176, token: 192
G2G: 4 heads
use ffn
G2L: 2 heads, inp: 176, token: 192
block: 196, cnn-drop 0.0000, mlp-drop 0.0000
L2G: 2 heads, inp: 176, token: 192
G2G: 4 heads
use ffn
G2L: 2 heads, inp: 240, token: 192
block: 49, cnn-drop 0.0000, mlp-drop 0.0000
L2G: 2 heads, inp: 240, token: 192
G2G: 4 heads
use ffn
G2L: 2 heads, inp: 240, token: 192
block: 49, cnn-drop 0.0000, mlp-drop 0.0000
L2G: 2 heads, inp: 240, token: 192
G2G: 4 heads
use ffn
G2L: 2 heads, inp: 240, token: 192
L2G: 2 heads, inp: 240, token: 192
MobileFormer(
  (tokens): Embedding(6, 192)
  (stem): Sequential(
    (0): Conv3d(3, 24, kernel_size=(3, 3, 3), stride=(2, 2, 2), padding=(1, 1, 1), bias=False)
    (1): BatchNorm3d(24, eps=1e-05, momentum=0.1, affine=True, track_running_stats=True)
    (2): ReLU6(inplace=True)
  )
  (resnet18_feature_extractor): ResNet(
    (conv1): Conv2d(3, 64, kernel_size=(7, 7), stride=(2, 2), padding=(3, 3), bias=False)
    (bn1): BatchNorm2d(64, eps=1e-05, momentum=0.1, affine=True, track_running_stats=True)
    (relu): ReLU(inplace=True)
    (maxpool): MaxPool2d(kernel_size=3, stride=2, padding=1, dilation=1, ceil_mode=False)
    (layer1): Sequential(
      (0): BasicBlock(
        (conv1): Conv2d(64, 64, kernel_size=(3, 3), stride=(1, 1), padding=(1, 1), bias=False)
        (bn1): BatchNorm2d(64, eps=1e-05, momentum=0.1, affine=True, track_running_stats=True)
        (relu): ReLU(inplace=True)
        (conv2): Conv2d(64, 64, kernel_size=(3, 3), stride=(1, 1), padding=(1, 1), bias=False)
        (bn2): BatchNorm2d(64, eps=1e-05, momentum=0.1, affine=True, track_running_stats=True)
      )
      (1): BasicBlock(
        (conv1): Conv2d(64, 64, kernel_size=(3, 3), stride=(1, 1), padding=(1, 1), bias=False)
        (bn1): BatchNorm2d(64, eps=1e-05, momentum=0.1, affine=True, track_running_stats=True)
        (relu): ReLU(inplace=True)
        (conv2): Conv2d(64, 64, kernel_size=(3, 3), stride=(1, 1), padding=(1, 1), bias=False)
        (bn2): BatchNorm2d(64, eps=1e-05, momentum=0.1, affine=True, track_running_stats=True)
      )
    )
    (layer2): Sequential(
      (0): BasicBlock(
        (conv1): Conv2d(64, 128, kernel_size=(3, 3), stride=(2, 2), padding=(1, 1), bias=False)
        (bn1): BatchNorm2d(128, eps=1e-05, momentum=0.1, affine=True, track_running_stats=True)
        (relu): ReLU(inplace=True)
        (conv2): Conv2d(128, 128, kernel_size=(3, 3), stride=(1, 1), padding=(1, 1), bias=False)
        (bn2): BatchNorm2d(128, eps=1e-05, momentum=0.1, affine=True, track_running_stats=True)
        (downsample): Sequential(
          (0): Conv2d(64, 128, kernel_size=(1, 1), stride=(2, 2), bias=False)
          (1): BatchNorm2d(128, eps=1e-05, momentum=0.1, affine=True, track_running_stats=True)
        )
      )
      (1): BasicBlock(
        (conv1): Conv2d(128, 128, kernel_size=(3, 3), stride=(1, 1), padding=(1, 1), bias=False)
        (bn1): BatchNorm2d(128, eps=1e-05, momentum=0.1, affine=True, track_running_stats=True)
        (relu): ReLU(inplace=True)
        (conv2): Conv2d(128, 128, kernel_size=(3, 3), stride=(1, 1), padding=(1, 1), bias=False)
        (bn2): BatchNorm2d(128, eps=1e-05, momentum=0.1, affine=True, track_running_stats=True)
      )
    )
    (layer3): Sequential(
      (0): BasicBlock(
        (conv1): Conv2d(128, 256, kernel_size=(3, 3), stride=(2, 2), padding=(1, 1), bias=False)
        (bn1): BatchNorm2d(256, eps=1e-05, momentum=0.1, affine=True, track_running_stats=True)
        (relu): ReLU(inplace=True)
        (conv2): Conv2d(256, 256, kernel_size=(3, 3), stride=(1, 1), padding=(1, 1), bias=False)
        (bn2): BatchNorm2d(256, eps=1e-05, momentum=0.1, affine=True, track_running_stats=True)
        (downsample): Sequential(
          (0): Conv2d(128, 256, kernel_size=(1, 1), stride=(2, 2), bias=False)
          (1): BatchNorm2d(256, eps=1e-05, momentum=0.1, affine=True, track_running_stats=True)
        )
      )
      (1): BasicBlock(
        (conv1): Conv2d(256, 256, kernel_size=(3, 3), stride=(1, 1), padding=(1, 1), bias=False)
        (bn1): BatchNorm2d(256, eps=1e-05, momentum=0.1, affine=True, track_running_stats=True)
        (relu): ReLU(inplace=True)
        (conv2): Conv2d(256, 256, kernel_size=(3, 3), stride=(1, 1), padding=(1, 1), bias=False)
        (bn2): BatchNorm2d(256, eps=1e-05, momentum=0.1, affine=True, track_running_stats=True)
      )
    )
    (layer4): Sequential(
      (0): BasicBlock(
        (conv1): Conv2d(256, 512, kernel_size=(3, 3), stride=(2, 2), padding=(1, 1), bias=False)
        (bn1): BatchNorm2d(512, eps=1e-05, momentum=0.1, affine=True, track_running_stats=True)
        (relu): ReLU(inplace=True)
        (conv2): Conv2d(512, 512, kernel_size=(3, 3), stride=(1, 1), padding=(1, 1), bias=False)
        (bn2): BatchNorm2d(512, eps=1e-05, momentum=0.1, affine=True, track_running_stats=True)
        (downsample): Sequential(
          (0): Conv2d(256, 512, kernel_size=(1, 1), stride=(2, 2), bias=False)
          (1): BatchNorm2d(512, eps=1e-05, momentum=0.1, affine=True, track_running_stats=True)
        )
      )
      (1): BasicBlock(
        (conv1): Conv2d(512, 512, kernel_size=(3, 3), stride=(1, 1), padding=(1, 1), bias=False)
        (bn1): BatchNorm2d(512, eps=1e-05, momentum=0.1, affine=True, track_running_stats=True)
        (relu): ReLU(inplace=True)
        (conv2): Conv2d(512, 512, kernel_size=(3, 3), stride=(1, 1), padding=(1, 1), bias=False)
        (bn2): BatchNorm2d(512, eps=1e-05, momentum=0.1, affine=True, track_running_stats=True)
      )
    )
    (avgpool): AdaptiveAvgPool2d(output_size=(1, 1))
    (fc): Linear(in_features=512, out_features=1000, bias=True)
  )
  (features): Sequential(
    (0): DnaBlock3(
      (conv): Sequential(
        (0): Conv3d(24, 48, kernel_size=(3, 3, 3), stride=(1, 1, 1), padding=(1, 1, 1), groups=24, bias=False)
        (1): BatchNorm3d(48, eps=1e-05, momentum=0.1, affine=True, track_running_stats=True)
        (2): ReLU6(inplace=True)
        (3): Sequential()
        (4): Conv3d(48, 24, kernel_size=(1, 1, 1), stride=(1, 1, 1), bias=False)
        (5): BatchNorm3d(24, eps=1e-05, momentum=0.1, affine=True, track_running_stats=True)
      )
    )
    (1): DnaBlock3(
      (conv1): Sequential(
        (0): Conv3d(24, 144, kernel_size=(3, 3, 3), stride=(2, 2, 2), padding=(1, 1, 1), groups=24, bias=False)
        (1): BatchNorm3d(144, eps=1e-05, momentum=0.1, affine=True, track_running_stats=True)
        (2): Sequential()
      )
      (act1): DyReLU(
        (act): Sequential()
      )
      (hyper1): HyperFunc(
        (hyper): Sequential(
          (0): Linear(in_features=192, out_features=48, bias=True)
          (1): ReLU(inplace=True)
          (2): Linear(in_features=48, out_features=288, bias=True)
          (3): h_sigmoid(
            (relu): ReLU6(inplace=True)
          )
        )
      )
      (conv2): Sequential(
        (0): Conv3d(144, 40, kernel_size=(1, 1, 1), stride=(1, 1, 1), bias=False)
        (1): BatchNorm3d(40, eps=1e-05, momentum=0.1, affine=True, track_running_stats=True)
      )
      (act2): DyReLU(
        (act): Sequential()
      )
      (conv3): Sequential(
        (0): Conv3d(40, 160, kernel_size=(3, 3, 3), stride=(1, 1, 1), padding=(1, 1, 1), groups=40, bias=False)
        (1): BatchNorm3d(160, eps=1e-05, momentum=0.1, affine=True, track_running_stats=True)
        (2): Sequential()
      )
      (act3): DyReLU(
        (act): Sequential()
      )
      (hyper3): HyperFunc(
        (hyper): Sequential(
          (0): Linear(in_features=192, out_features=48, bias=True)
          (1): ReLU(inplace=True)
          (2): Linear(in_features=48, out_features=320, bias=True)
          (3): h_sigmoid(
            (relu): ReLU6(inplace=True)
          )
        )
      )
      (conv4): Sequential(
        (0): Conv3d(160, 40, kernel_size=(1, 1, 1), stride=(1, 1, 1), bias=False)
        (1): BatchNorm3d(40, eps=1e-05, momentum=0.1, affine=True, track_running_stats=True)
      )
      (act4): DyReLU(
        (act): Sequential()
      )
      (hyper4): Sequential()
      (drop_path): DropPath(drop_prob=0.000)
      (local_global): Local2Global(
        (alpha): Sequential(
          (0): Linear(in_features=192, out_features=24, bias=True)
          (1): h_sigmoid(
            (relu): ReLU6(inplace=True)
          )
        )
        (q): Linear(in_features=192, out_features=24, bias=True)
        (proj): Linear(in_features=24, out_features=192, bias=True)
        (layer_norm): LayerNorm((192,), eps=1e-05, elementwise_affine=True)
        (drop_path): DropPath(drop_prob=0.000)
        (fc_q_u): Linear(in_features=192, out_features=1, bias=True)
        (fc_q_std): Linear(in_features=192, out_features=1, bias=True)
        (emd): Sequential(
          (0): Linear(in_features=192, out_features=24, bias=True)
          (1): ReLU(inplace=True)
        )
        (var): Sequential(
          (0): Linear(in_features=192, out_features=24, bias=True)
        )
      )
      (global_block): GlobalBlock(
        (ffn): Sequential(
          (0): Linear(in_features=192, out_features=384, bias=True)
          (1): GELU()
          (2): Linear(in_features=384, out_features=192, bias=True)
        )
        (ffn_norm): LayerNorm((192,), eps=1e-05, elementwise_affine=True)
        (q): Linear(in_features=192, out_features=192, bias=True)
        (channel_mlp): Linear(in_features=192, out_features=192, bias=True)
        (layer_norm): LayerNorm((192,), eps=1e-05, elementwise_affine=True)
        (drop_path): DropPath(drop_prob=0.000)
      )
      (global_local): Global2Local(
        (k): Linear(in_features=192, out_features=40, bias=True)
        (proj): Linear(in_features=192, out_features=40, bias=True)
        (drop_path): DropPath(drop_prob=0.000)
        (fc_cnn): Linear(in_features=192, out_features=1, bias=True)
        (fc_kv_u): Linear(in_features=192, out_features=1, bias=True)
        (fc_kv_std): Linear(in_features=192, out_features=1, bias=True)
        (emd): Sequential(
          (0): Linear(in_features=192, out_features=40, bias=True)
          (1): ReLU(inplace=True)
        )
        (var): Sequential(
          (0): Linear(in_features=192, out_features=40, bias=True)
        )
      )
    )
    (2): DnaBlock(
      (conv1): Sequential(
        (0): Conv3d(40, 120, kernel_size=(1, 1, 1), stride=(1, 1, 1), bias=False)
        (1): BatchNorm3d(120, eps=1e-05, momentum=0.1, affine=True, track_running_stats=True)
        (2): Sequential()
      )
      (act1): DyReLU(
        (act): Sequential()
      )
      (hyper1): HyperFunc(
        (hyper): Sequential(
          (0): Linear(in_features=192, out_features=48, bias=True)
          (1): ReLU(inplace=True)
          (2): Linear(in_features=48, out_features=240, bias=True)
          (3): h_sigmoid(
            (relu): ReLU6(inplace=True)
          )
        )
      )
      (conv2): Sequential(
        (0): Conv3d(120, 120, kernel_size=(3, 3, 3), stride=(1, 1, 1), padding=(1, 1, 1), groups=120, bias=False)
        (1): BatchNorm3d(120, eps=1e-05, momentum=0.1, affine=True, track_running_stats=True)
      )
      (act2): DyReLU(
        (act): Sequential()
      )
      (hyper2): HyperFunc(
        (hyper): Sequential(
          (0): Linear(in_features=192, out_features=48, bias=True)
          (1): ReLU(inplace=True)
          (2): Linear(in_features=48, out_features=240, bias=True)
          (3): h_sigmoid(
            (relu): ReLU6(inplace=True)
          )
        )
      )
      (conv3): Sequential(
        (0): Conv3d(120, 40, kernel_size=(1, 1, 1), stride=(1, 1, 1), bias=False)
        (1): BatchNorm3d(40, eps=1e-05, momentum=0.1, affine=True, track_running_stats=True)
        (2): Sequential()
      )
      (act3): DyReLU(
        (act): Sequential()
      )
      (hyper3): Sequential()
      (drop_path): DropPath(drop_prob=0.000)
      (local_global): Local2Global(
        (alpha): Sequential(
          (0): Linear(in_features=192, out_features=40, bias=True)
          (1): h_sigmoid(
            (relu): ReLU6(inplace=True)
          )
        )
        (q): Linear(in_features=192, out_features=40, bias=True)
        (proj): Linear(in_features=40, out_features=192, bias=True)
        (layer_norm): LayerNorm((192,), eps=1e-05, elementwise_affine=True)
        (drop_path): DropPath(drop_prob=0.000)
        (fc_q_u): Linear(in_features=192, out_features=1, bias=True)
        (fc_q_std): Linear(in_features=192, out_features=1, bias=True)
        (emd): Sequential(
          (0): Linear(in_features=192, out_features=40, bias=True)
          (1): ReLU(inplace=True)
        )
        (var): Sequential(
          (0): Linear(in_features=192, out_features=40, bias=True)
        )
      )
      (global_block): GlobalBlock(
        (ffn): Sequential(
          (0): Linear(in_features=192, out_features=384, bias=True)
          (1): GELU()
          (2): Linear(in_features=384, out_features=192, bias=True)
        )
        (ffn_norm): LayerNorm((192,), eps=1e-05, elementwise_affine=True)
        (q): Linear(in_features=192, out_features=192, bias=True)
        (channel_mlp): Linear(in_features=192, out_features=192, bias=True)
        (layer_norm): LayerNorm((192,), eps=1e-05, elementwise_affine=True)
        (drop_path): DropPath(drop_prob=0.000)
      )
      (global_local): Global2Local(
        (k): Linear(in_features=192, out_features=40, bias=True)
        (proj): Linear(in_features=192, out_features=40, bias=True)
        (drop_path): DropPath(drop_prob=0.000)
        (fc_cnn): Linear(in_features=192, out_features=1, bias=True)
        (fc_kv_u): Linear(in_features=192, out_features=1, bias=True)
        (fc_kv_std): Linear(in_features=192, out_features=1, bias=True)
        (emd): Sequential(
          (0): Linear(in_features=192, out_features=40, bias=True)
          (1): ReLU(inplace=True)
        )
        (var): Sequential(
          (0): Linear(in_features=192, out_features=40, bias=True)
        )
      )
    )
    (3): DnaBlock3(
      (conv1): Sequential(
        (0): Conv3d(40, 240, kernel_size=(3, 3, 3), stride=(2, 2, 2), padding=(1, 1, 1), groups=40, bias=False)
        (1): BatchNorm3d(240, eps=1e-05, momentum=0.1, affine=True, track_running_stats=True)
        (2): Sequential()
      )
      (act1): DyReLU(
        (act): Sequential()
      )
      (hyper1): HyperFunc(
        (hyper): Sequential(
          (0): Linear(in_features=192, out_features=48, bias=True)
          (1): ReLU(inplace=True)
          (2): Linear(in_features=48, out_features=480, bias=True)
          (3): h_sigmoid(
            (relu): ReLU6(inplace=True)
          )
        )
      )
      (conv2): Sequential(
        (0): Conv3d(240, 72, kernel_size=(1, 1, 1), stride=(1, 1, 1), bias=False)
        (1): BatchNorm3d(72, eps=1e-05, momentum=0.1, affine=True, track_running_stats=True)
      )
      (act2): DyReLU(
        (act): Sequential()
      )
      (conv3): Sequential(
        (0): Conv3d(72, 288, kernel_size=(3, 3, 3), stride=(1, 1, 1), padding=(1, 1, 1), groups=72, bias=False)
        (1): BatchNorm3d(288, eps=1e-05, momentum=0.1, affine=True, track_running_stats=True)
        (2): Sequential()
      )
      (act3): DyReLU(
        (act): Sequential()
      )
      (hyper3): HyperFunc(
        (hyper): Sequential(
          (0): Linear(in_features=192, out_features=48, bias=True)
          (1): ReLU(inplace=True)
          (2): Linear(in_features=48, out_features=576, bias=True)
          (3): h_sigmoid(
            (relu): ReLU6(inplace=True)
          )
        )
      )
      (conv4): Sequential(
        (0): Conv3d(288, 72, kernel_size=(1, 1, 1), stride=(1, 1, 1), bias=False)
        (1): BatchNorm3d(72, eps=1e-05, momentum=0.1, affine=True, track_running_stats=True)
      )
      (act4): DyReLU(
        (act): Sequential()
      )
      (hyper4): Sequential()
      (drop_path): DropPath(drop_prob=0.000)
      (local_global): Local2Global(
        (alpha): Sequential(
          (0): Linear(in_features=192, out_features=40, bias=True)
          (1): h_sigmoid(
            (relu): ReLU6(inplace=True)
          )
        )
        (q): Linear(in_features=192, out_features=40, bias=True)
        (proj): Linear(in_features=40, out_features=192, bias=True)
        (layer_norm): LayerNorm((192,), eps=1e-05, elementwise_affine=True)
        (drop_path): DropPath(drop_prob=0.000)
        (fc_q_u): Linear(in_features=192, out_features=1, bias=True)
        (fc_q_std): Linear(in_features=192, out_features=1, bias=True)
        (emd): Sequential(
          (0): Linear(in_features=192, out_features=40, bias=True)
          (1): ReLU(inplace=True)
        )
        (var): Sequential(
          (0): Linear(in_features=192, out_features=40, bias=True)
        )
      )
      (global_block): GlobalBlock(
        (ffn): Sequential(
          (0): Linear(in_features=192, out_features=384, bias=True)
          (1): GELU()
          (2): Linear(in_features=384, out_features=192, bias=True)
        )
        (ffn_norm): LayerNorm((192,), eps=1e-05, elementwise_affine=True)
        (q): Linear(in_features=192, out_features=192, bias=True)
        (channel_mlp): Linear(in_features=192, out_features=192, bias=True)
        (layer_norm): LayerNorm((192,), eps=1e-05, elementwise_affine=True)
        (drop_path): DropPath(drop_prob=0.000)
      )
      (global_local): Global2Local(
        (k): Linear(in_features=192, out_features=72, bias=True)
        (proj): Linear(in_features=192, out_features=72, bias=True)
        (drop_path): DropPath(drop_prob=0.000)
        (fc_cnn): Linear(in_features=192, out_features=1, bias=True)
        (fc_kv_u): Linear(in_features=192, out_features=1, bias=True)
        (fc_kv_std): Linear(in_features=192, out_features=1, bias=True)
        (emd): Sequential(
          (0): Linear(in_features=192, out_features=72, bias=True)
          (1): ReLU(inplace=True)
        )
        (var): Sequential(
          (0): Linear(in_features=192, out_features=72, bias=True)
        )
      )
    )
    (4): DnaBlock(
      (conv1): Sequential(
        (0): Conv3d(72, 216, kernel_size=(1, 1, 1), stride=(1, 1, 1), bias=False)
        (1): BatchNorm3d(216, eps=1e-05, momentum=0.1, affine=True, track_running_stats=True)
        (2): Sequential()
      )
      (act1): DyReLU(
        (act): Sequential()
      )
      (hyper1): HyperFunc(
        (hyper): Sequential(
          (0): Linear(in_features=192, out_features=48, bias=True)
          (1): ReLU(inplace=True)
          (2): Linear(in_features=48, out_features=432, bias=True)
          (3): h_sigmoid(
            (relu): ReLU6(inplace=True)
          )
        )
      )
      (conv2): Sequential(
        (0): Conv3d(216, 216, kernel_size=(3, 3, 3), stride=(1, 1, 1), padding=(1, 1, 1), groups=216, bias=False)
        (1): BatchNorm3d(216, eps=1e-05, momentum=0.1, affine=True, track_running_stats=True)
      )
      (act2): DyReLU(
        (act): Sequential()
      )
      (hyper2): HyperFunc(
        (hyper): Sequential(
          (0): Linear(in_features=192, out_features=48, bias=True)
          (1): ReLU(inplace=True)
          (2): Linear(in_features=48, out_features=432, bias=True)
          (3): h_sigmoid(
            (relu): ReLU6(inplace=True)
          )
        )
      )
      (conv3): Sequential(
        (0): Conv3d(216, 72, kernel_size=(1, 1, 1), stride=(1, 1, 1), bias=False)
        (1): BatchNorm3d(72, eps=1e-05, momentum=0.1, affine=True, track_running_stats=True)
        (2): Sequential()
      )
      (act3): DyReLU(
        (act): Sequential()
      )
      (hyper3): Sequential()
      (drop_path): DropPath(drop_prob=0.000)
      (local_global): Local2Global(
        (alpha): Sequential(
          (0): Linear(in_features=192, out_features=72, bias=True)
          (1): h_sigmoid(
            (relu): ReLU6(inplace=True)
          )
        )
        (q): Linear(in_features=192, out_features=72, bias=True)
        (proj): Linear(in_features=72, out_features=192, bias=True)
        (layer_norm): LayerNorm((192,), eps=1e-05, elementwise_affine=True)
        (drop_path): DropPath(drop_prob=0.000)
        (fc_q_u): Linear(in_features=192, out_features=1, bias=True)
        (fc_q_std): Linear(in_features=192, out_features=1, bias=True)
        (emd): Sequential(
          (0): Linear(in_features=192, out_features=72, bias=True)
          (1): ReLU(inplace=True)
        )
        (var): Sequential(
          (0): Linear(in_features=192, out_features=72, bias=True)
        )
      )
      (global_block): GlobalBlock(
        (ffn): Sequential(
          (0): Linear(in_features=192, out_features=384, bias=True)
          (1): GELU()
          (2): Linear(in_features=384, out_features=192, bias=True)
        )
        (ffn_norm): LayerNorm((192,), eps=1e-05, elementwise_affine=True)
        (q): Linear(in_features=192, out_features=192, bias=True)
        (channel_mlp): Linear(in_features=192, out_features=192, bias=True)
        (layer_norm): LayerNorm((192,), eps=1e-05, elementwise_affine=True)
        (drop_path): DropPath(drop_prob=0.000)
      )
      (global_local): Global2Local(
        (k): Linear(in_features=192, out_features=72, bias=True)
        (proj): Linear(in_features=192, out_features=72, bias=True)
        (drop_path): DropPath(drop_prob=0.000)
        (fc_cnn): Linear(in_features=192, out_features=1, bias=True)
        (fc_kv_u): Linear(in_features=192, out_features=1, bias=True)
        (fc_kv_std): Linear(in_features=192, out_features=1, bias=True)
        (emd): Sequential(
          (0): Linear(in_features=192, out_features=72, bias=True)
          (1): ReLU(inplace=True)
        )
        (var): Sequential(
          (0): Linear(in_features=192, out_features=72, bias=True)
        )
      )
    )
    (5): DnaBlock3(
      (conv1): Sequential(
        (0): Conv3d(72, 432, kernel_size=(3, 3, 3), stride=(2, 2, 2), padding=(1, 1, 1), groups=72, bias=False)
        (1): BatchNorm3d(432, eps=1e-05, momentum=0.1, affine=True, track_running_stats=True)
        (2): Sequential()
      )
      (act1): DyReLU(
        (act): Sequential()
      )
      (hyper1): HyperFunc(
        (hyper): Sequential(
          (0): Linear(in_features=192, out_features=48, bias=True)
          (1): ReLU(inplace=True)
          (2): Linear(in_features=48, out_features=864, bias=True)
          (3): h_sigmoid(
            (relu): ReLU6(inplace=True)
          )
        )
      )
      (conv2): Sequential(
        (0): Conv3d(432, 128, kernel_size=(1, 1, 1), stride=(1, 1, 1), bias=False)
        (1): BatchNorm3d(128, eps=1e-05, momentum=0.1, affine=True, track_running_stats=True)
      )
      (act2): DyReLU(
        (act): Sequential()
      )
      (conv3): Sequential(
        (0): Conv3d(128, 512, kernel_size=(3, 3, 3), stride=(1, 1, 1), padding=(1, 1, 1), groups=128, bias=False)
        (1): BatchNorm3d(512, eps=1e-05, momentum=0.1, affine=True, track_running_stats=True)
        (2): Sequential()
      )
      (act3): DyReLU(
        (act): Sequential()
      )
      (hyper3): HyperFunc(
        (hyper): Sequential(
          (0): Linear(in_features=192, out_features=48, bias=True)
          (1): ReLU(inplace=True)
          (2): Linear(in_features=48, out_features=1024, bias=True)
          (3): h_sigmoid(
            (relu): ReLU6(inplace=True)
          )
        )
      )
      (conv4): Sequential(
        (0): Conv3d(512, 128, kernel_size=(1, 1, 1), stride=(1, 1, 1), bias=False)
        (1): BatchNorm3d(128, eps=1e-05, momentum=0.1, affine=True, track_running_stats=True)
      )
      (act4): DyReLU(
        (act): Sequential()
      )
      (hyper4): Sequential()
      (drop_path): DropPath(drop_prob=0.000)
      (local_global): Local2Global(
        (alpha): Sequential(
          (0): Linear(in_features=192, out_features=72, bias=True)
          (1): h_sigmoid(
            (relu): ReLU6(inplace=True)
          )
        )
        (q): Linear(in_features=192, out_features=72, bias=True)
        (proj): Linear(in_features=72, out_features=192, bias=True)
        (layer_norm): LayerNorm((192,), eps=1e-05, elementwise_affine=True)
        (drop_path): DropPath(drop_prob=0.000)
        (fc_q_u): Linear(in_features=192, out_features=1, bias=True)
        (fc_q_std): Linear(in_features=192, out_features=1, bias=True)
        (emd): Sequential(
          (0): Linear(in_features=192, out_features=72, bias=True)
          (1): ReLU(inplace=True)
        )
        (var): Sequential(
          (0): Linear(in_features=192, out_features=72, bias=True)
        )
      )
      (global_block): GlobalBlock(
        (ffn): Sequential(
          (0): Linear(in_features=192, out_features=384, bias=True)
          (1): GELU()
          (2): Linear(in_features=384, out_features=192, bias=True)
        )
        (ffn_norm): LayerNorm((192,), eps=1e-05, elementwise_affine=True)
        (q): Linear(in_features=192, out_features=192, bias=True)
        (channel_mlp): Linear(in_features=192, out_features=192, bias=True)
        (layer_norm): LayerNorm((192,), eps=1e-05, elementwise_affine=True)
        (drop_path): DropPath(drop_prob=0.000)
      )
      (global_local): Global2Local(
        (k): Linear(in_features=192, out_features=128, bias=True)
        (proj): Linear(in_features=192, out_features=128, bias=True)
        (drop_path): DropPath(drop_prob=0.000)
        (fc_cnn): Linear(in_features=192, out_features=1, bias=True)
        (fc_kv_u): Linear(in_features=192, out_features=1, bias=True)
        (fc_kv_std): Linear(in_features=192, out_features=1, bias=True)
        (emd): Sequential(
          (0): Linear(in_features=192, out_features=128, bias=True)
          (1): ReLU(inplace=True)
        )
        (var): Sequential(
          (0): Linear(in_features=192, out_features=128, bias=True)
        )
      )
    )
    (6): DnaBlock(
      (conv1): Sequential(
        (0): Conv3d(128, 512, kernel_size=(1, 1, 1), stride=(1, 1, 1), bias=False)
        (1): BatchNorm3d(512, eps=1e-05, momentum=0.1, affine=True, track_running_stats=True)
        (2): Sequential()
      )
      (act1): DyReLU(
        (act): Sequential()
      )
      (hyper1): HyperFunc(
        (hyper): Sequential(
          (0): Linear(in_features=192, out_features=48, bias=True)
          (1): ReLU(inplace=True)
          (2): Linear(in_features=48, out_features=1024, bias=True)
          (3): h_sigmoid(
            (relu): ReLU6(inplace=True)
          )
        )
      )
      (conv2): Sequential(
        (0): Conv3d(512, 512, kernel_size=(3, 3, 3), stride=(1, 1, 1), padding=(1, 1, 1), groups=512, bias=False)
        (1): BatchNorm3d(512, eps=1e-05, momentum=0.1, affine=True, track_running_stats=True)
      )
      (act2): DyReLU(
        (act): Sequential()
      )
      (hyper2): HyperFunc(
        (hyper): Sequential(
          (0): Linear(in_features=192, out_features=48, bias=True)
          (1): ReLU(inplace=True)
          (2): Linear(in_features=48, out_features=1024, bias=True)
          (3): h_sigmoid(
            (relu): ReLU6(inplace=True)
          )
        )
      )
      (conv3): Sequential(
        (0): Conv3d(512, 128, kernel_size=(1, 1, 1), stride=(1, 1, 1), bias=False)
        (1): BatchNorm3d(128, eps=1e-05, momentum=0.1, affine=True, track_running_stats=True)
        (2): Sequential()
      )
      (act3): DyReLU(
        (act): Sequential()
      )
      (hyper3): Sequential()
      (drop_path): DropPath(drop_prob=0.000)
      (local_global): Local2Global(
        (alpha): Sequential(
          (0): Linear(in_features=192, out_features=128, bias=True)
          (1): h_sigmoid(
            (relu): ReLU6(inplace=True)
          )
        )
        (q): Linear(in_features=192, out_features=128, bias=True)
        (proj): Linear(in_features=128, out_features=192, bias=True)
        (layer_norm): LayerNorm((192,), eps=1e-05, elementwise_affine=True)
        (drop_path): DropPath(drop_prob=0.000)
        (fc_q_u): Linear(in_features=192, out_features=1, bias=True)
        (fc_q_std): Linear(in_features=192, out_features=1, bias=True)
        (emd): Sequential(
          (0): Linear(in_features=192, out_features=128, bias=True)
          (1): ReLU(inplace=True)
        )
        (var): Sequential(
          (0): Linear(in_features=192, out_features=128, bias=True)
        )
      )
      (global_block): GlobalBlock(
        (ffn): Sequential(
          (0): Linear(in_features=192, out_features=384, bias=True)
          (1): GELU()
          (2): Linear(in_features=384, out_features=192, bias=True)
        )
        (ffn_norm): LayerNorm((192,), eps=1e-05, elementwise_affine=True)
        (q): Linear(in_features=192, out_features=192, bias=True)
        (channel_mlp): Linear(in_features=192, out_features=192, bias=True)
        (layer_norm): LayerNorm((192,), eps=1e-05, elementwise_affine=True)
        (drop_path): DropPath(drop_prob=0.000)
      )
      (global_local): Global2Local(
        (k): Linear(in_features=192, out_features=128, bias=True)
        (proj): Linear(in_features=192, out_features=128, bias=True)
        (drop_path): DropPath(drop_prob=0.000)
        (fc_cnn): Linear(in_features=192, out_features=1, bias=True)
        (fc_kv_u): Linear(in_features=192, out_features=1, bias=True)
        (fc_kv_std): Linear(in_features=192, out_features=1, bias=True)
        (emd): Sequential(
          (0): Linear(in_features=192, out_features=128, bias=True)
          (1): ReLU(inplace=True)
        )
        (var): Sequential(
          (0): Linear(in_features=192, out_features=128, bias=True)
        )
      )
    )
    (7): DnaBlock(
      (conv1): Sequential(
        (0): Conv3d(128, 768, kernel_size=(1, 1, 1), stride=(1, 1, 1), bias=False)
        (1): BatchNorm3d(768, eps=1e-05, momentum=0.1, affine=True, track_running_stats=True)
        (2): Sequential()
      )
      (act1): DyReLU(
        (act): Sequential()
      )
      (hyper1): HyperFunc(
        (hyper): Sequential(
          (0): Linear(in_features=192, out_features=48, bias=True)
          (1): ReLU(inplace=True)
          (2): Linear(in_features=48, out_features=1536, bias=True)
          (3): h_sigmoid(
            (relu): ReLU6(inplace=True)
          )
        )
      )
      (conv2): Sequential(
        (0): Conv3d(768, 768, kernel_size=(3, 3, 3), stride=(1, 1, 1), padding=(1, 1, 1), groups=768, bias=False)
        (1): BatchNorm3d(768, eps=1e-05, momentum=0.1, affine=True, track_running_stats=True)
      )
      (act2): DyReLU(
        (act): Sequential()
      )
      (hyper2): HyperFunc(
        (hyper): Sequential(
          (0): Linear(in_features=192, out_features=48, bias=True)
          (1): ReLU(inplace=True)
          (2): Linear(in_features=48, out_features=1536, bias=True)
          (3): h_sigmoid(
            (relu): ReLU6(inplace=True)
          )
        )
      )
      (conv3): Sequential(
        (0): Conv3d(768, 176, kernel_size=(1, 1, 1), stride=(1, 1, 1), bias=False)
        (1): BatchNorm3d(176, eps=1e-05, momentum=0.1, affine=True, track_running_stats=True)
        (2): Sequential()
      )
      (act3): DyReLU(
        (act): Sequential()
      )
      (hyper3): Sequential()
      (drop_path): DropPath(drop_prob=0.000)
      (local_global): Local2Global(
        (alpha): Sequential(
          (0): Linear(in_features=192, out_features=128, bias=True)
          (1): h_sigmoid(
            (relu): ReLU6(inplace=True)
          )
        )
        (q): Linear(in_features=192, out_features=128, bias=True)
        (proj): Linear(in_features=128, out_features=192, bias=True)
        (layer_norm): LayerNorm((192,), eps=1e-05, elementwise_affine=True)
        (drop_path): DropPath(drop_prob=0.000)
        (fc_q_u): Linear(in_features=192, out_features=1, bias=True)
        (fc_q_std): Linear(in_features=192, out_features=1, bias=True)
        (emd): Sequential(
          (0): Linear(in_features=192, out_features=128, bias=True)
          (1): ReLU(inplace=True)
        )
        (var): Sequential(
          (0): Linear(in_features=192, out_features=128, bias=True)
        )
      )
      (global_block): GlobalBlock(
        (ffn): Sequential(
          (0): Linear(in_features=192, out_features=384, bias=True)
          (1): GELU()
          (2): Linear(in_features=384, out_features=192, bias=True)
        )
        (ffn_norm): LayerNorm((192,), eps=1e-05, elementwise_affine=True)
        (q): Linear(in_features=192, out_features=192, bias=True)
        (channel_mlp): Linear(in_features=192, out_features=192, bias=True)
        (layer_norm): LayerNorm((192,), eps=1e-05, elementwise_affine=True)
        (drop_path): DropPath(drop_prob=0.000)
      )
      (global_local): Global2Local(
        (k): Linear(in_features=192, out_features=176, bias=True)
        (proj): Linear(in_features=192, out_features=176, bias=True)
        (drop_path): DropPath(drop_prob=0.000)
        (fc_cnn): Linear(in_features=192, out_features=1, bias=True)
        (fc_kv_u): Linear(in_features=192, out_features=1, bias=True)
        (fc_kv_std): Linear(in_features=192, out_features=1, bias=True)
        (emd): Sequential(
          (0): Linear(in_features=192, out_features=176, bias=True)
          (1): ReLU(inplace=True)
        )
        (var): Sequential(
          (0): Linear(in_features=192, out_features=176, bias=True)
        )
      )
    )
    (8): DnaBlock(
      (conv1): Sequential(
        (0): Conv3d(176, 1056, kernel_size=(1, 1, 1), stride=(1, 1, 1), bias=False)
        (1): BatchNorm3d(1056, eps=1e-05, momentum=0.1, affine=True, track_running_stats=True)
        (2): Sequential()
      )
      (act1): DyReLU(
        (act): Sequential()
      )
      (hyper1): HyperFunc(
        (hyper): Sequential(
          (0): Linear(in_features=192, out_features=48, bias=True)
          (1): ReLU(inplace=True)
          (2): Linear(in_features=48, out_features=2112, bias=True)
          (3): h_sigmoid(
            (relu): ReLU6(inplace=True)
          )
        )
      )
      (conv2): Sequential(
        (0): Conv3d(1056, 1056, kernel_size=(3, 3, 3), stride=(1, 1, 1), padding=(1, 1, 1), groups=1056, bias=False)
        (1): BatchNorm3d(1056, eps=1e-05, momentum=0.1, affine=True, track_running_stats=True)
      )
      (act2): DyReLU(
        (act): Sequential()
      )
      (hyper2): HyperFunc(
        (hyper): Sequential(
          (0): Linear(in_features=192, out_features=48, bias=True)
          (1): ReLU(inplace=True)
          (2): Linear(in_features=48, out_features=2112, bias=True)
          (3): h_sigmoid(
            (relu): ReLU6(inplace=True)
          )
        )
      )
      (conv3): Sequential(
        (0): Conv3d(1056, 176, kernel_size=(1, 1, 1), stride=(1, 1, 1), bias=False)
        (1): BatchNorm3d(176, eps=1e-05, momentum=0.1, affine=True, track_running_stats=True)
        (2): Sequential()
      )
      (act3): DyReLU(
        (act): Sequential()
      )
      (hyper3): Sequential()
      (drop_path): DropPath(drop_prob=0.000)
      (local_global): Local2Global(
        (alpha): Sequential(
          (0): Linear(in_features=192, out_features=176, bias=True)
          (1): h_sigmoid(
            (relu): ReLU6(inplace=True)
          )
        )
        (q): Linear(in_features=192, out_features=176, bias=True)
        (proj): Linear(in_features=176, out_features=192, bias=True)
        (layer_norm): LayerNorm((192,), eps=1e-05, elementwise_affine=True)
        (drop_path): DropPath(drop_prob=0.000)
        (fc_q_u): Linear(in_features=192, out_features=1, bias=True)
        (fc_q_std): Linear(in_features=192, out_features=1, bias=True)
        (emd): Sequential(
          (0): Linear(in_features=192, out_features=176, bias=True)
          (1): ReLU(inplace=True)
        )
        (var): Sequential(
          (0): Linear(in_features=192, out_features=176, bias=True)
        )
      )
      (global_block): GlobalBlock(
        (ffn): Sequential(
          (0): Linear(in_features=192, out_features=384, bias=True)
          (1): GELU()
          (2): Linear(in_features=384, out_features=192, bias=True)
        )
        (ffn_norm): LayerNorm((192,), eps=1e-05, elementwise_affine=True)
        (q): Linear(in_features=192, out_features=192, bias=True)
        (channel_mlp): Linear(in_features=192, out_features=192, bias=True)
        (layer_norm): LayerNorm((192,), eps=1e-05, elementwise_affine=True)
        (drop_path): DropPath(drop_prob=0.000)
      )
      (global_local): Global2Local(
        (k): Linear(in_features=192, out_features=176, bias=True)
        (proj): Linear(in_features=192, out_features=176, bias=True)
        (drop_path): DropPath(drop_prob=0.000)
        (fc_cnn): Linear(in_features=192, out_features=1, bias=True)
        (fc_kv_u): Linear(in_features=192, out_features=1, bias=True)
        (fc_kv_std): Linear(in_features=192, out_features=1, bias=True)
        (emd): Sequential(
          (0): Linear(in_features=192, out_features=176, bias=True)
          (1): ReLU(inplace=True)
        )
        (var): Sequential(
          (0): Linear(in_features=192, out_features=176, bias=True)
        )
      )
    )
    (9): DnaBlock3(
      (conv1): Sequential(
        (0): Conv3d(176, 1056, kernel_size=(3, 3, 3), stride=(2, 2, 2), padding=(1, 1, 1), groups=176, bias=False)
        (1): BatchNorm3d(1056, eps=1e-05, momentum=0.1, affine=True, track_running_stats=True)
        (2): Sequential()
      )
      (act1): DyReLU(
        (act): Sequential()
      )
      (hyper1): HyperFunc(
        (hyper): Sequential(
          (0): Linear(in_features=192, out_features=48, bias=True)
          (1): ReLU(inplace=True)
          (2): Linear(in_features=48, out_features=2112, bias=True)
          (3): h_sigmoid(
            (relu): ReLU6(inplace=True)
          )
        )
      )
      (conv2): Sequential(
        (0): Conv3d(1056, 240, kernel_size=(1, 1, 1), stride=(1, 1, 1), bias=False)
        (1): BatchNorm3d(240, eps=1e-05, momentum=0.1, affine=True, track_running_stats=True)
      )
      (act2): DyReLU(
        (act): Sequential()
      )
      (conv3): Sequential(
        (0): Conv3d(240, 960, kernel_size=(3, 3, 3), stride=(1, 1, 1), padding=(1, 1, 1), groups=240, bias=False)
        (1): BatchNorm3d(960, eps=1e-05, momentum=0.1, affine=True, track_running_stats=True)
        (2): Sequential()
      )
      (act3): DyReLU(
        (act): Sequential()
      )
      (hyper3): HyperFunc(
        (hyper): Sequential(
          (0): Linear(in_features=192, out_features=48, bias=True)
          (1): ReLU(inplace=True)
          (2): Linear(in_features=48, out_features=1920, bias=True)
          (3): h_sigmoid(
            (relu): ReLU6(inplace=True)
          )
        )
      )
      (conv4): Sequential(
        (0): Conv3d(960, 240, kernel_size=(1, 1, 1), stride=(1, 1, 1), bias=False)
        (1): BatchNorm3d(240, eps=1e-05, momentum=0.1, affine=True, track_running_stats=True)
      )
      (act4): DyReLU(
        (act): Sequential()
      )
      (hyper4): Sequential()
      (drop_path): DropPath(drop_prob=0.000)
      (local_global): Local2Global(
        (alpha): Sequential(
          (0): Linear(in_features=192, out_features=176, bias=True)
          (1): h_sigmoid(
            (relu): ReLU6(inplace=True)
          )
        )
        (q): Linear(in_features=192, out_features=176, bias=True)
        (proj): Linear(in_features=176, out_features=192, bias=True)
        (layer_norm): LayerNorm((192,), eps=1e-05, elementwise_affine=True)
        (drop_path): DropPath(drop_prob=0.000)
        (fc_q_u): Linear(in_features=192, out_features=1, bias=True)
        (fc_q_std): Linear(in_features=192, out_features=1, bias=True)
        (emd): Sequential(
          (0): Linear(in_features=192, out_features=176, bias=True)
          (1): ReLU(inplace=True)
        )
        (var): Sequential(
          (0): Linear(in_features=192, out_features=176, bias=True)
        )
      )
      (global_block): GlobalBlock(
        (ffn): Sequential(
          (0): Linear(in_features=192, out_features=384, bias=True)
          (1): GELU()
          (2): Linear(in_features=384, out_features=192, bias=True)
        )
        (ffn_norm): LayerNorm((192,), eps=1e-05, elementwise_affine=True)
        (q): Linear(in_features=192, out_features=192, bias=True)
        (channel_mlp): Linear(in_features=192, out_features=192, bias=True)
        (layer_norm): LayerNorm((192,), eps=1e-05, elementwise_affine=True)
        (drop_path): DropPath(drop_prob=0.000)
      )
      (global_local): Global2Local(
        (k): Linear(in_features=192, out_features=240, bias=True)
        (proj): Linear(in_features=192, out_features=240, bias=True)
        (drop_path): DropPath(drop_prob=0.000)
        (fc_cnn): Linear(in_features=192, out_features=1, bias=True)
        (fc_kv_u): Linear(in_features=192, out_features=1, bias=True)
        (fc_kv_std): Linear(in_features=192, out_features=1, bias=True)
        (emd): Sequential(
          (0): Linear(in_features=192, out_features=240, bias=True)
          (1): ReLU(inplace=True)
        )
        (var): Sequential(
          (0): Linear(in_features=192, out_features=240, bias=True)
        )
      )
    )
    (10): DnaBlock(
      (conv1): Sequential(
        (0): Conv3d(240, 1440, kernel_size=(1, 1, 1), stride=(1, 1, 1), bias=False)
        (1): BatchNorm3d(1440, eps=1e-05, momentum=0.1, affine=True, track_running_stats=True)
        (2): Sequential()
      )
      (act1): DyReLU(
        (act): Sequential()
      )
      (hyper1): HyperFunc(
        (hyper): Sequential(
          (0): Linear(in_features=192, out_features=48, bias=True)
          (1): ReLU(inplace=True)
          (2): Linear(in_features=48, out_features=2880, bias=True)
          (3): h_sigmoid(
            (relu): ReLU6(inplace=True)
          )
        )
      )
      (conv2): Sequential(
        (0): Conv3d(1440, 1440, kernel_size=(3, 3, 3), stride=(1, 1, 1), padding=(1, 1, 1), groups=1440, bias=False)
        (1): BatchNorm3d(1440, eps=1e-05, momentum=0.1, affine=True, track_running_stats=True)
      )
      (act2): DyReLU(
        (act): Sequential()
      )
      (hyper2): HyperFunc(
        (hyper): Sequential(
          (0): Linear(in_features=192, out_features=48, bias=True)
          (1): ReLU(inplace=True)
          (2): Linear(in_features=48, out_features=2880, bias=True)
          (3): h_sigmoid(
            (relu): ReLU6(inplace=True)
          )
        )
      )
      (conv3): Sequential(
        (0): Conv3d(1440, 240, kernel_size=(1, 1, 1), stride=(1, 1, 1), bias=False)
        (1): BatchNorm3d(240, eps=1e-05, momentum=0.1, affine=True, track_running_stats=True)
        (2): Sequential()
      )
      (act3): DyReLU(
        (act): Sequential()
      )
      (hyper3): Sequential()
      (drop_path): DropPath(drop_prob=0.000)
      (local_global): Local2Global(
        (alpha): Sequential(
          (0): Linear(in_features=192, out_features=240, bias=True)
          (1): h_sigmoid(
            (relu): ReLU6(inplace=True)
          )
        )
        (q): Linear(in_features=192, out_features=240, bias=True)
        (proj): Linear(in_features=240, out_features=192, bias=True)
        (layer_norm): LayerNorm((192,), eps=1e-05, elementwise_affine=True)
        (drop_path): DropPath(drop_prob=0.000)
        (fc_q_u): Linear(in_features=192, out_features=1, bias=True)
        (fc_q_std): Linear(in_features=192, out_features=1, bias=True)
        (emd): Sequential(
          (0): Linear(in_features=192, out_features=240, bias=True)
          (1): ReLU(inplace=True)
        )
        (var): Sequential(
          (0): Linear(in_features=192, out_features=240, bias=True)
        )
      )
      (global_block): GlobalBlock(
        (ffn): Sequential(
          (0): Linear(in_features=192, out_features=384, bias=True)
          (1): GELU()
          (2): Linear(in_features=384, out_features=192, bias=True)
        )
        (ffn_norm): LayerNorm((192,), eps=1e-05, elementwise_affine=True)
        (q): Linear(in_features=192, out_features=192, bias=True)
        (channel_mlp): Linear(in_features=192, out_features=192, bias=True)
        (layer_norm): LayerNorm((192,), eps=1e-05, elementwise_affine=True)
        (drop_path): DropPath(drop_prob=0.000)
      )
      (global_local): Global2Local(
        (k): Linear(in_features=192, out_features=240, bias=True)
        (proj): Linear(in_features=192, out_features=240, bias=True)
        (drop_path): DropPath(drop_prob=0.000)
        (fc_cnn): Linear(in_features=192, out_features=1, bias=True)
        (fc_kv_u): Linear(in_features=192, out_features=1, bias=True)
        (fc_kv_std): Linear(in_features=192, out_features=1, bias=True)
        (emd): Sequential(
          (0): Linear(in_features=192, out_features=240, bias=True)
          (1): ReLU(inplace=True)
        )
        (var): Sequential(
          (0): Linear(in_features=192, out_features=240, bias=True)
        )
      )
    )
    (11): DnaBlock(
      (conv1): Sequential(
        (0): Conv3d(240, 1440, kernel_size=(1, 1, 1), stride=(1, 1, 1), bias=False)
        (1): BatchNorm3d(1440, eps=1e-05, momentum=0.1, affine=True, track_running_stats=True)
        (2): Sequential()
      )
      (act1): DyReLU(
        (act): Sequential()
      )
      (hyper1): HyperFunc(
        (hyper): Sequential(
          (0): Linear(in_features=192, out_features=48, bias=True)
          (1): ReLU(inplace=True)
          (2): Linear(in_features=48, out_features=2880, bias=True)
          (3): h_sigmoid(
            (relu): ReLU6(inplace=True)
          )
        )
      )
      (conv2): Sequential(
        (0): Conv3d(1440, 1440, kernel_size=(3, 3, 3), stride=(1, 1, 1), padding=(1, 1, 1), groups=1440, bias=False)
        (1): BatchNorm3d(1440, eps=1e-05, momentum=0.1, affine=True, track_running_stats=True)
      )
      (act2): DyReLU(
        (act): Sequential()
      )
      (hyper2): HyperFunc(
        (hyper): Sequential(
          (0): Linear(in_features=192, out_features=48, bias=True)
          (1): ReLU(inplace=True)
          (2): Linear(in_features=48, out_features=2880, bias=True)
          (3): h_sigmoid(
            (relu): ReLU6(inplace=True)
          )
        )
      )
      (conv3): Sequential(
        (0): Conv3d(1440, 240, kernel_size=(1, 1, 1), stride=(1, 1, 1), bias=False)
        (1): BatchNorm3d(240, eps=1e-05, momentum=0.1, affine=True, track_running_stats=True)
        (2): Sequential()
      )
      (act3): DyReLU(
        (act): Sequential()
      )
      (hyper3): Sequential()
      (drop_path): DropPath(drop_prob=0.000)
      (local_global): Local2Global(
        (alpha): Sequential(
          (0): Linear(in_features=192, out_features=240, bias=True)
          (1): h_sigmoid(
            (relu): ReLU6(inplace=True)
          )
        )
        (q): Linear(in_features=192, out_features=240, bias=True)
        (proj): Linear(in_features=240, out_features=192, bias=True)
        (layer_norm): LayerNorm((192,), eps=1e-05, elementwise_affine=True)
        (drop_path): DropPath(drop_prob=0.000)
        (fc_q_u): Linear(in_features=192, out_features=1, bias=True)
        (fc_q_std): Linear(in_features=192, out_features=1, bias=True)
        (emd): Sequential(
          (0): Linear(in_features=192, out_features=240, bias=True)
          (1): ReLU(inplace=True)
        )
        (var): Sequential(
          (0): Linear(in_features=192, out_features=240, bias=True)
        )
      )
      (global_block): GlobalBlock(
        (ffn): Sequential(
          (0): Linear(in_features=192, out_features=384, bias=True)
          (1): GELU()
          (2): Linear(in_features=384, out_features=192, bias=True)
        )
        (ffn_norm): LayerNorm((192,), eps=1e-05, elementwise_affine=True)
        (q): Linear(in_features=192, out_features=192, bias=True)
        (channel_mlp): Linear(in_features=192, out_features=192, bias=True)
        (layer_norm): LayerNorm((192,), eps=1e-05, elementwise_affine=True)
        (drop_path): DropPath(drop_prob=0.000)
      )
      (global_local): Global2Local(
        (k): Linear(in_features=192, out_features=240, bias=True)
        (proj): Linear(in_features=192, out_features=240, bias=True)
        (drop_path): DropPath(drop_prob=0.000)
        (fc_cnn): Linear(in_features=192, out_features=1, bias=True)
        (fc_kv_u): Linear(in_features=192, out_features=1, bias=True)
        (fc_kv_std): Linear(in_features=192, out_features=1, bias=True)
        (emd): Sequential(
          (0): Linear(in_features=192, out_features=240, bias=True)
          (1): ReLU(inplace=True)
        )
        (var): Sequential(
          (0): Linear(in_features=192, out_features=240, bias=True)
        )
      )
    )
  )
  (local_global): Local2Global(
    (alpha): Sequential(
      (0): Linear(in_features=192, out_features=240, bias=True)
      (1): h_sigmoid(
        (relu): ReLU6(inplace=True)
      )
    )
    (q): Linear(in_features=192, out_features=240, bias=True)
    (proj): Linear(in_features=240, out_features=192, bias=True)
    (layer_norm): LayerNorm((192,), eps=1e-05, elementwise_affine=True)
    (drop_path): DropPath(drop_prob=0.000)
    (fc_q_u): Linear(in_features=192, out_features=1, bias=True)
    (fc_q_std): Linear(in_features=192, out_features=1, bias=True)
    (emd): Sequential(
      (0): Linear(in_features=192, out_features=240, bias=True)
      (1): ReLU(inplace=True)
    )
    (var): Sequential(
      (0): Linear(in_features=192, out_features=240, bias=True)
    )
  )
  (classifier): MergeClassifier(
    (conv): Sequential(
      (0): Sequential()
      (1): Conv3d(240, 1440, kernel_size=(1, 1, 1), stride=(1, 1, 1), bias=False)
      (2): BatchNorm3d(1440, eps=1e-05, momentum=0.1, affine=True, track_running_stats=True)
    )
    (act): DyReLU(
      (act): ReLU6(inplace=True)
    )
    (hyper): Sequential()
    (avgpool): Sequential(
      (0): AdaptiveAvgPool3d(output_size=(1, 1, 1))
      (1): h_swish(
        (sigmoid): h_sigmoid(
          (relu): ReLU6(inplace=True)
        )
      )
    )
    (fc): Sequential(
      (0): Linear(in_features=2592, out_features=1920, bias=True)
      (1): BatchNorm1d(1920, eps=1e-05, momentum=0.1, affine=True, track_running_stats=True)
      (2): h_swish(
        (sigmoid): h_sigmoid(
          (relu): ReLU6(inplace=True)
        )
      )
    )
    (classifier): Sequential(
      (0): Dropout(p=0.5, inplace=False)
      (1): Linear(in_features=1920, out_features=150, bias=True)
    )
  )
)
############################### Dataset loading ###############################
/home/amax/anaconda3/envs/yuan/lib/python3.8/site-packages/torchvision/transforms/transforms.py:257: UserWarning: Argument interpolation should be of type InterpolationMode instead of int. Please, use InterpolationMode enum.
  warnings.warn(
###############################  Dataset loaded  ##############################
…
